Using vocabulary size 8000.

_________________________________________________________________
Layer (type)                 Output Shape              Param #   
=================================================================
embedding_1 (Embedding)      (None, 1500, 128)         1024000   
_________________________________________________________________
bidirectional_1 (Bidirection (None, 1500, 128)         98816     
_________________________________________________________________
dropout_1 (Dropout)          (None, 1500, 128)         0         
_________________________________________________________________
bidirectional_2 (Bidirection (None, 128)               98816     
_________________________________________________________________
dropout_2 (Dropout)          (None, 128)               0         
_________________________________________________________________
dense_1 (Dense)              (None, 1)                 129       
=================================================================
Total params: 1,221,761
Trainable params: 1,221,761
Non-trainable params: 0
_________________________________________________________________
None
Embedding Vector Length;LSTM units;Batch Size;Epochs;Dropout
Parameters = 128;64;32;3;0.6
Accuracy;F1;Precision;Recall;LogLoss
Fold 0


Reading CSV file -> /Users/noiseux1523/PycharmProjects/RNN/data-python/jmeter/0-train-jmeter-bodies-no.csv.neg
…
