…
Reading CSV file -> /Users/noiseux1523/PycharmProjects/RNN/data-python/3-test-jmeter-bodies-no.csv.neg
Parsed 962 sentences.
Found 2367 unique words tokens.
The least frequent word in our vocabulary is 'closed' and appeared 1 times.

Reading CSV file -> /Users/noiseux1523/PycharmProjects/RNN/data-python/3-test-jmeter-bodies-yes.csv.pos
Parsed 47 sentences.
Found 788 unique words tokens.
The least frequent word in our vocabulary is 'objects' and appeared 1 times.
_________________________________________________________________
Layer (type)                 Output Shape              Param #   
=================================================================
embedding_1 (Embedding)      (None, 1500, 128)         1024000   
_________________________________________________________________
bidirectional_1 (Bidirection (None, 1500, 100)         71600     
_________________________________________________________________
dropout_1 (Dropout)          (None, 1500, 100)         0         
_________________________________________________________________
bidirectional_2 (Bidirection (None, 1500, 100)         60400     
_________________________________________________________________
dropout_2 (Dropout)          (None, 1500, 100)         0         
_________________________________________________________________
bidirectional_3 (Bidirection (None, 100)               60400     
_________________________________________________________________
dropout_3 (Dropout)          (None, 100)               0         
_________________________________________________________________
dense_1 (Dense)              (None, 1)                 101       
=================================================================
Total params: 1,216,501
Trainable params: 1,216,501
Non-trainable params: 0
_________________________________________________________________
None
Train...
Train on 9094 samples, validate on 1009 samples
Epoch 1/3
  32/9094 [..............................] - ETA: 4540s - loss: 0.6943 - acc: 0.3438
…
