…
The least frequent word in our vocabulary is 'reflect' and appeared 1 times.

Reading CSV file -> /Users/noiseux1523/PycharmProjects/RNN/data/0-python-test-jmeter-bodies-yes.csv.pos
Parsed 47 sentences.
Found 898 unique words tokens.
The least frequent word in our vocabulary is 'interrupted' and appeared 1 times.

Embedding Vector Length - LSTM units 1 - LSTM units 2 - LSTM units 3 - Batch Size

128;50;100;150;32

_________________________________________________________________
Layer (type)                 Output Shape              Param #   
=================================================================
embedding_1 (Embedding)      (None, 1500, 128)         1024000   
_________________________________________________________________
dropout_1 (Dropout)          (None, 1500, 128)         0         
_________________________________________________________________
lstm_1 (LSTM)                (None, 1500, 50)          35800     
_________________________________________________________________
dropout_2 (Dropout)          (None, 1500, 50)          0         
_________________________________________________________________
lstm_2 (LSTM)                (None, 1500, 100)         60400     
_________________________________________________________________
dropout_3 (Dropout)          (None, 1500, 100)         0         
_________________________________________________________________
lstm_3 (LSTM)                (None, 150)               150600    
_________________________________________________________________
dropout_4 (Dropout)          (None, 150)               0         
_________________________________________________________________
dense_1 (Dense)              (None, 1)                 151       
=================================================================
Total params: 1,270,951
Trainable params: 1,270,951
Non-trainable params: 0
_________________________________________________________________
None
Train on 9094 samples, validate on 1009 samples
Epoch 1/3
  32/9094 [..............................] - ETA: 3661s - loss: 0.6932 - acc: 0.4688
…
 [0]
 [0]
 [0]
 [0]
 [0]
 [0]
 [0]
 [0]
 [0]
 [0]
 [0]
 [1]
 [0]
 [0]
 [0]
 [0]
 [0]
 [0]
 [1]
 [0]
 [0]
 [0]
 [0]
 [0]
 [0]]

Accuracy - F1 - Precision - Recall - LogLoss

92.56689791873141;9.638554216867469;11.11111111111111;8.51063829787234;2.567327865942585

DONE


Embedding Vector Length - LSTM units 1 - LSTM units 2 - LSTM units 3 - Batch Size

128;100;150;200;32

_________________________________________________________________
Layer (type)                 Output Shape              Param #   
=================================================================
embedding_3 (Embedding)      (None, 1500, 128)         1024000   
_________________________________________________________________
dropout_9 (Dropout)          (None, 1500, 128)         0         
_________________________________________________________________
lstm_7 (LSTM)                (None, 1500, 100)         91600     
_________________________________________________________________
dropout_10 (Dropout)         (None, 1500, 100)         0         
_________________________________________________________________
lstm_8 (LSTM)                (None, 1500, 150)         150600    
_________________________________________________________________
dropout_11 (Dropout)         (None, 1500, 150)         0         
_________________________________________________________________
lstm_9 (LSTM)                (None, 200)               280800    
_________________________________________________________________
dropout_12 (Dropout)         (None, 200)               0         
_________________________________________________________________
dense_3 (Dense)              (None, 1)                 201       
=================================================================
Total params: 1,547,201
Trainable params: 1,547,201
Non-trainable params: 0
_________________________________________________________________
None
Train on 9094 samples, validate on 1009 samples
Epoch 1/3
  32/9094 [..............................] - ETA: 4188s - loss: 0.6909 - acc: 0.9062
…
